…
THROUGHPUT_MODE: false
TRAIN:
  ACCUMULATION_STEPS: 2
  AUTO_RESUME: true
  BASE_LR: 6.25e-06
  CLIP_GRAD: 5.0
  EPOCHS: 300
  LR_SCHEDULER:
    DECAY_EPOCHS: 30
    DECAY_RATE: 0.1
    NAME: cosine
  MIN_LR: 6.25e-08
  OPTIMIZER:
    BETAS:
    - 0.9
    - 0.999
    EPS: 1.0e-08
    MOMENTUM: 0.9
    NAME: adamw
  START_EPOCH: 0
  USE_CHECKPOINT: false
  WARMUP_EPOCHS: 20
  WARMUP_LR: 6.25e-09
  WEIGHT_DECAY: 0.05

[2022-05-30 21:27:10 MetaFG_0] (main.py 99): INFO Creating model:MetaFG/MetaFG_0
[2022-05-30 21:27:11 MetaFG_0] (main.py 102): INFO MetaFG(
  (stage_0): Sequential(
    (0): Conv2d(3, 48, kernel_size=(3, 3), stride=(2, 2), padding=(1, 1), bias=False)
    (1): BatchNorm2d(48, eps=1e-05, momentum=0.1, affine=True, track_running_stats=True)
    (2): ReLU(inplace=True)
    (3): Conv2d(48, 64, kernel_size=(3, 3), stride=(1, 1), padding=(1, 1), bias=False)
    (4): BatchNorm2d(64, eps=1e-05, momentum=0.1, affine=True, track_running_stats=True)
    (5): ReLU(inplace=True)
    (6): Conv2d(64, 64, kernel_size=(3, 3), stride=(1, 1), padding=(1, 1), bias=False)
  )
  (bn1): BatchNorm2d(64, eps=1e-05, momentum=0.1, affine=True, track_running_stats=True)
  (act1): ReLU(inplace=True)
  (maxpool): MaxPool2d(kernel_size=3, stride=2, padding=1, dilation=1, ceil_mode=False)
  (stage_1): ModuleList(
    (0): MBConvBlock(
      (_expand_conv): Conv2d(64, 256, kernel_size=(1, 1), stride=(1, 1), bias=False)
      (_bn0): BatchNorm2d(256, eps=0.01, momentum=0.1, affine=True, track_running_stats=True)
      (_depthwise_conv): Conv2d(256, 256, kernel_size=(3, 3), stride=(1, 1), padding=(1, 1), groups=256, bias=False)
      (_bn1): BatchNorm2d(256, eps=0.01, momentum=0.1, affine=True, track_running_stats=True)
      (_se_reduce): Conv2d(256, 16, kernel_size=(1, 1), stride=(1, 1))
      (_se_expand): Conv2d(16, 256, kernel_size=(1, 1), stride=(1, 1))
      (_project_conv): Conv2d(256, 96, kernel_size=(1, 1), stride=(1, 1), bias=False)
      (_bn2): BatchNorm2d(96, eps=0.01, momentum=0.1, affine=True, track_running_stats=True)
      (_swish): MemoryEfficientSwish()
    )
    (1): MBConvBlock(
      (_expand_conv): Conv2d(96, 384, kernel_size=(1, 1), stride=(1, 1), bias=False)
      (_bn0): BatchNorm2d(384, eps=0.01, momentum=0.1, affine=True, track_running_stats=True)
      (_depthwise_conv): Conv2d(384, 384, kernel_size=(3, 3), stride=(1, 1), padding=(1, 1), groups=384, bias=False)
      (_bn1): BatchNorm2d(384, eps=0.01, momentum=0.1, affine=True, track_running_stats=True)
      (_se_reduce): Conv2d(384, 24, kernel_size=(1, 1), stride=(1, 1))
      (_se_expand): Conv2d(24, 384, kernel_size=(1, 1), stride=(1, 1))
      (_project_conv): Conv2d(384, 96, kernel_size=(1, 1), stride=(1, 1), bias=False)
      (_bn2): BatchNorm2d(96, eps=0.01, momentum=0.1, affine=True, track_running_stats=True)
      (_swish): MemoryEfficientSwish()
    )
  )
  (stage_2): ModuleList(
    (0): MBConvBlock(
      (_expand_conv): Conv2d(96, 384, kernel_size=(1, 1), stride=(1, 1), bias=False)
      (_bn0): BatchNorm2d(384, eps=0.01, momentum=0.1, affine=True, track_running_stats=True)
      (_depthwise_conv): Conv2d(384, 384, kernel_size=(3, 3), stride=(2, 2), padding=(1, 1), groups=384, bias=False)
      (_bn1): BatchNorm2d(384, eps=0.01, momentum=0.1, affine=True, track_running_stats=True)
      (_se_reduce): Conv2d(384, 24, kernel_size=(1, 1), stride=(1, 1))
      (_se_expand): Conv2d(24, 384, kernel_size=(1, 1), stride=(1, 1))
      (_project_conv): Conv2d(384, 192, kernel_size=(1, 1), stride=(1, 1), bias=False)
      (_bn2): BatchNorm2d(192, eps=0.01, momentum=0.1, affine=True, track_running_stats=True)
      (_swish): MemoryEfficientSwish()
    )
    (1): MBConvBlock(
      (_expand_conv): Conv2d(192, 768, kernel_size=(1, 1), stride=(1, 1), bias=False)
      (_bn0): BatchNorm2d(768, eps=0.01, momentum=0.1, affine=True, track_running_stats=True)
      (_depthwise_conv): Conv2d(768, 768, kernel_size=(3, 3), stride=(1, 1), padding=(1, 1), groups=768, bias=False)
      (_bn1): BatchNorm2d(768, eps=0.01, momentum=0.1, affine=True, track_running_stats=True)
      (_se_reduce): Conv2d(768, 48, kernel_size=(1, 1), stride=(1, 1))
      (_se_expand): Conv2d(48, 768, kernel_size=(1, 1), stride=(1, 1))
      (_project_conv): Conv2d(768, 192, kernel_size=(1, 1), stride=(1, 1), bias=False)
      (_bn2): BatchNorm2d(192, eps=0.01, momentum=0.1, affine=True, track_running_stats=True)
      (_swish): MemoryEfficientSwish()
    )
    (2): MBConvBlock(
      (_expand_conv): Conv2d(192, 768, kernel_size=(1, 1), stride=(1, 1), bias=False)
      (_bn0): BatchNorm2d(768, eps=0.01, momentum=0.1, affine=True, track_running_stats=True)
      (_depthwise_conv): Conv2d(768, 768, kernel_size=(3, 3), stride=(1, 1), padding=(1, 1), groups=768, bias=False)
      (_bn1): BatchNorm2d(768, eps=0.01, momentum=0.1, affine=True, track_running_stats=True)
      (_se_reduce): Conv2d(768, 48, kernel_size=(1, 1), stride=(1, 1))
      (_se_expand): Conv2d(48, 768, kernel_size=(1, 1), stride=(1, 1))
      (_project_conv): Conv2d(768, 192, kernel_size=(1, 1), stride=(1, 1), bias=False)
      (_bn2): BatchNorm2d(192, eps=0.01, momentum=0.1, affine=True, track_running_stats=True)
      (_swish): MemoryEfficientSwish()
    )
  )
  (stage_3): ModuleList(
    (0): MHSABlock(
      (patch_embed): OverlapPatchEmbed(
        (proj): Conv2d(192, 384, kernel_size=(3, 3), stride=(2, 2), padding=(1, 1))
        (norm): LayerNorm((384,), eps=1e-05, elementwise_affine=True)
      )
      (norm1): LayerNorm((384,), eps=1e-05, elementwise_affine=True)
      (attn): Relative_Attention(
        (qkv): Linear(in_features=384, out_features=1152, bias=False)
        (attn_drop): Dropout(p=0.0, inplace=False)
        (proj): Linear(in_features=384, out_features=384, bias=True)
        (proj_drop): Dropout(p=0.0, inplace=False)
        (softmax): Softmax(dim=-1)
      )
      (drop_path): DropPath()
      (norm2): LayerNorm((384,), eps=1e-05, elementwise_affine=True)
      (mlp): Mlp(
        (fc1): Linear(in_features=384, out_features=1536, bias=True)
        (act): GELU()
        (fc2): Linear(in_features=1536, out_features=384, bias=True)
        (drop): Dropout(p=0.0, inplace=False)
      )
    )
    (1): MHSABlock(
      (norm1): LayerNorm((384,), eps=1e-05, elementwise_affine=True)
      (attn): Relative_Attention(
        (qkv): Linear(in_features=384, out_features=1152, bias=False)
        (attn_drop): Dropout(p=0.0, inplace=False)
        (proj): Linear(in_features=384, out_features=384, bias=True)
        (proj_drop): Dropout(p=0.0, inplace=False)
        (softmax): Softmax(dim=-1)
      )
      (drop_path): DropPath()
      (norm2): LayerNorm((384,), eps=1e-05, elementwise_affine=True)
      (mlp): Mlp(
        (fc1): Linear(in_features=384, out_features=1536, bias=True)
        (act): GELU()
        (fc2): Linear(in_features=1536, out_features=384, bias=True)
        (drop): Dropout(p=0.0, inplace=False)
      )
    )
    (2): MHSABlock(
      (norm1): LayerNorm((384,), eps=1e-05, elementwise_affine=True)
      (attn): Relative_Attention(
        (qkv): Linear(in_features=384, out_features=1152, bias=False)
        (attn_drop): Dropout(p=0.0, inplace=False)
        (proj): Linear(in_features=384, out_features=384, bias=True)
        (proj_drop): Dropout(p=0.0, inplace=False)
        (softmax): Softmax(dim=-1)
      )
      (drop_path): DropPath()
      (norm2): LayerNorm((384,), eps=1e-05, elementwise_affine=True)
      (mlp): Mlp(
        (fc1): Linear(in_features=384, out_features=1536, bias=True)
        (act): GELU()
        (fc2): Linear(in_features=1536, out_features=384, bias=True)
        (drop): Dropout(p=0.0, inplace=False)
      )
    )
    (3): MHSABlock(
      (norm1): LayerNorm((384,), eps=1e-05, elementwise_affine=True)
      (attn): Relative_Attention(
        (qkv): Linear(in_features=384, out_features=1152, bias=False)
        (attn_drop): Dropout(p=0.0, inplace=False)
        (proj): Linear(in_features=384, out_features=384, bias=True)
        (proj_drop): Dropout(p=0.0, inplace=False)
        (softmax): Softmax(dim=-1)
      )
      (drop_path): DropPath()
      (norm2): LayerNorm((384,), eps=1e-05, elementwise_affine=True)
      (mlp): Mlp(
        (fc1): Linear(in_features=384, out_features=1536, bias=True)
        (act): GELU()
        (fc2): Linear(in_features=1536, out_features=384, bias=True)
        (drop): Dropout(p=0.0, inplace=False)
      )
    )
    (4): MHSABlock(
      (norm1): LayerNorm((384,), eps=1e-05, elementwise_affine=True)
      (attn): Relative_Attention(
        (qkv): Linear(in_features=384, out_features=1152, bias=False)
        (attn_drop): Dropout(p=0.0, inplace=False)
        (proj): Linear(in_features=384, out_features=384, bias=True)
        (proj_drop): Dropout(p=0.0, inplace=False)
        (softmax): Softmax(dim=-1)
      )
      (drop_path): DropPath()
      (norm2): LayerNorm((384,), eps=1e-05, elementwise_affine=True)
      (mlp): Mlp(
        (fc1): Linear(in_features=384, out_features=1536, bias=True)
        (act): GELU()
        (fc2): Linear(in_features=1536, out_features=384, bias=True)
        (drop): Dropout(p=0.0, inplace=False)
      )
    )
  )
  (stage_4): ModuleList(
    (0): MHSABlock(
      (patch_embed): OverlapPatchEmbed(
        (proj): Conv2d(384, 768, kernel_size=(3, 3), stride=(2, 2), padding=(1, 1))
        (norm): LayerNorm((768,), eps=1e-05, elementwise_affine=True)
      )
      (norm1): LayerNorm((768,), eps=1e-05, elementwise_affine=True)
      (attn): Relative_Attention(
        (qkv): Linear(in_features=768, out_features=2304, bias=False)
        (attn_drop): Dropout(p=0.0, inplace=False)
        (proj): Linear(in_features=768, out_features=768, bias=True)
        (proj_drop): Dropout(p=0.0, inplace=False)
        (softmax): Softmax(dim=-1)
      )
      (drop_path): DropPath()
      (norm2): LayerNorm((768,), eps=1e-05, elementwise_affine=True)
      (mlp): Mlp(
        (fc1): Linear(in_features=768, out_features=3072, bias=True)
        (act): GELU()
        (fc2): Linear(in_features=3072, out_features=768, bias=True)
        (drop): Dropout(p=0.0, inplace=False)
      )
    )
    (1): MHSABlock(
      (norm1): LayerNorm((768,), eps=1e-05, elementwise_affine=True)
      (attn): Relative_Attention(
        (qkv): Linear(in_features=768, out_features=2304, bias=False)
        (attn_drop): Dropout(p=0.0, inplace=False)
        (proj): Linear(in_features=768, out_features=768, bias=True)
        (proj_drop): Dropout(p=0.0, inplace=False)
        (softmax): Softmax(dim=-1)
      )
      (drop_path): DropPath()
      (norm2): LayerNorm((768,), eps=1e-05, elementwise_affine=True)
      (mlp): Mlp(
        (fc1): Linear(in_features=768, out_features=3072, bias=True)
        (act): GELU()
        (fc2): Linear(in_features=3072, out_features=768, bias=True)
        (drop): Dropout(p=0.0, inplace=False)
      )
    )
  )
  (norm_2): LayerNorm((768,), eps=1e-05, elementwise_affine=True)
  (cl_1_fc): Sequential(
    (0): Mlp(
      (fc1): Linear(in_features=384, out_features=384, bias=True)
      (act): GELU()
      (fc2): Linear(in_features=384, out_features=768, bias=True)
      (drop): Dropout(p=0.0, inplace=False)
    )
    (1): LayerNorm((768,), eps=1e-05, elementwise_affine=True)
  )
  (aggregate): Conv1d(2, 1, kernel_size=(1,), stride=(1,))
  (norm_1): LayerNorm((384,), eps=1e-05, elementwise_affine=True)
  (norm): LayerNorm((768,), eps=1e-05, elementwise_affine=True)
  (head): Linear(in_features=768, out_features=200, bias=True)
)
[2022-05-30 21:27:11 MetaFG_0] (main.py 110): INFO number of params: 28170955
[2022-05-30 21:27:11 MetaFG_0] (utils.py 43): INFO ==============> pretrain form ./pretrained_model/metafg_0_1k_224.pth....................
[2022-05-30 21:27:11 MetaFG_0] (utils.py 53): INFO ==============> drop head....................
[2022-05-30 21:27:11 MetaFG_0] (utils.py 63): INFO ==============> drop meta head....................
…
THROUGHPUT_MODE: false
TRAIN:
  ACCUMULATION_STEPS: 2
  AUTO_RESUME: true
  BASE_LR: 6.25e-06
  CLIP_GRAD: 5.0
  EPOCHS: 300
  LR_SCHEDULER:
    DECAY_EPOCHS: 30
    DECAY_RATE: 0.1
    NAME: cosine
  MIN_LR: 6.25e-08
  OPTIMIZER:
    BETAS:
    - 0.9
    - 0.999
    EPS: 1.0e-08
    MOMENTUM: 0.9
    NAME: adamw
  START_EPOCH: 0
  USE_CHECKPOINT: false
  WARMUP_EPOCHS: 20
  WARMUP_LR: 6.25e-09
  WEIGHT_DECAY: 0.05

[2022-05-30 22:01:43 MetaFG_0] (main.py 99): INFO Creating model:MetaFG/MetaFG_0
[2022-05-30 22:01:44 MetaFG_0] (main.py 102): INFO MetaFG(
  (stage_0): Sequential(
    (0): Conv2d(3, 48, kernel_size=(3, 3), stride=(2, 2), padding=(1, 1), bias=False)
    (1): BatchNorm2d(48, eps=1e-05, momentum=0.1, affine=True, track_running_stats=True)
    (2): ReLU(inplace=True)
    (3): Conv2d(48, 64, kernel_size=(3, 3), stride=(1, 1), padding=(1, 1), bias=False)
    (4): BatchNorm2d(64, eps=1e-05, momentum=0.1, affine=True, track_running_stats=True)
    (5): ReLU(inplace=True)
    (6): Conv2d(64, 64, kernel_size=(3, 3), stride=(1, 1), padding=(1, 1), bias=False)
  )
  (bn1): BatchNorm2d(64, eps=1e-05, momentum=0.1, affine=True, track_running_stats=True)
  (act1): ReLU(inplace=True)
  (maxpool): MaxPool2d(kernel_size=3, stride=2, padding=1, dilation=1, ceil_mode=False)
  (stage_1): ModuleList(
    (0): MBConvBlock(
      (_expand_conv): Conv2d(64, 256, kernel_size=(1, 1), stride=(1, 1), bias=False)
      (_bn0): BatchNorm2d(256, eps=0.01, momentum=0.1, affine=True, track_running_stats=True)
      (_depthwise_conv): Conv2d(256, 256, kernel_size=(3, 3), stride=(1, 1), padding=(1, 1), groups=256, bias=False)
      (_bn1): BatchNorm2d(256, eps=0.01, momentum=0.1, affine=True, track_running_stats=True)
      (_se_reduce): Conv2d(256, 16, kernel_size=(1, 1), stride=(1, 1))
      (_se_expand): Conv2d(16, 256, kernel_size=(1, 1), stride=(1, 1))
      (_project_conv): Conv2d(256, 96, kernel_size=(1, 1), stride=(1, 1), bias=False)
      (_bn2): BatchNorm2d(96, eps=0.01, momentum=0.1, affine=True, track_running_stats=True)
      (_swish): MemoryEfficientSwish()
    )
    (1): MBConvBlock(
      (_expand_conv): Conv2d(96, 384, kernel_size=(1, 1), stride=(1, 1), bias=False)
      (_bn0): BatchNorm2d(384, eps=0.01, momentum=0.1, affine=True, track_running_stats=True)
      (_depthwise_conv): Conv2d(384, 384, kernel_size=(3, 3), stride=(1, 1), padding=(1, 1), groups=384, bias=False)
      (_bn1): BatchNorm2d(384, eps=0.01, momentum=0.1, affine=True, track_running_stats=True)
      (_se_reduce): Conv2d(384, 24, kernel_size=(1, 1), stride=(1, 1))
      (_se_expand): Conv2d(24, 384, kernel_size=(1, 1), stride=(1, 1))
      (_project_conv): Conv2d(384, 96, kernel_size=(1, 1), stride=(1, 1), bias=False)
      (_bn2): BatchNorm2d(96, eps=0.01, momentum=0.1, affine=True, track_running_stats=True)
      (_swish): MemoryEfficientSwish()
    )
  )
  (stage_2): ModuleList(
    (0): MBConvBlock(
      (_expand_conv): Conv2d(96, 384, kernel_size=(1, 1), stride=(1, 1), bias=False)
      (_bn0): BatchNorm2d(384, eps=0.01, momentum=0.1, affine=True, track_running_stats=True)
      (_depthwise_conv): Conv2d(384, 384, kernel_size=(3, 3), stride=(2, 2), padding=(1, 1), groups=384, bias=False)
      (_bn1): BatchNorm2d(384, eps=0.01, momentum=0.1, affine=True, track_running_stats=True)
      (_se_reduce): Conv2d(384, 24, kernel_size=(1, 1), stride=(1, 1))
      (_se_expand): Conv2d(24, 384, kernel_size=(1, 1), stride=(1, 1))
      (_project_conv): Conv2d(384, 192, kernel_size=(1, 1), stride=(1, 1), bias=False)
      (_bn2): BatchNorm2d(192, eps=0.01, momentum=0.1, affine=True, track_running_stats=True)
      (_swish): MemoryEfficientSwish()
    )
    (1): MBConvBlock(
      (_expand_conv): Conv2d(192, 768, kernel_size=(1, 1), stride=(1, 1), bias=False)
      (_bn0): BatchNorm2d(768, eps=0.01, momentum=0.1, affine=True, track_running_stats=True)
      (_depthwise_conv): Conv2d(768, 768, kernel_size=(3, 3), stride=(1, 1), padding=(1, 1), groups=768, bias=False)
      (_bn1): BatchNorm2d(768, eps=0.01, momentum=0.1, affine=True, track_running_stats=True)
      (_se_reduce): Conv2d(768, 48, kernel_size=(1, 1), stride=(1, 1))
      (_se_expand): Conv2d(48, 768, kernel_size=(1, 1), stride=(1, 1))
      (_project_conv): Conv2d(768, 192, kernel_size=(1, 1), stride=(1, 1), bias=False)
      (_bn2): BatchNorm2d(192, eps=0.01, momentum=0.1, affine=True, track_running_stats=True)
      (_swish): MemoryEfficientSwish()
    )
    (2): MBConvBlock(
      (_expand_conv): Conv2d(192, 768, kernel_size=(1, 1), stride=(1, 1), bias=False)
      (_bn0): BatchNorm2d(768, eps=0.01, momentum=0.1, affine=True, track_running_stats=True)
      (_depthwise_conv): Conv2d(768, 768, kernel_size=(3, 3), stride=(1, 1), padding=(1, 1), groups=768, bias=False)
      (_bn1): BatchNorm2d(768, eps=0.01, momentum=0.1, affine=True, track_running_stats=True)
      (_se_reduce): Conv2d(768, 48, kernel_size=(1, 1), stride=(1, 1))
      (_se_expand): Conv2d(48, 768, kernel_size=(1, 1), stride=(1, 1))
      (_project_conv): Conv2d(768, 192, kernel_size=(1, 1), stride=(1, 1), bias=False)
      (_bn2): BatchNorm2d(192, eps=0.01, momentum=0.1, affine=True, track_running_stats=True)
      (_swish): MemoryEfficientSwish()
    )
  )
  (stage_3): ModuleList(
    (0): MHSABlock(
      (patch_embed): OverlapPatchEmbed(
        (proj): Conv2d(192, 384, kernel_size=(3, 3), stride=(2, 2), padding=(1, 1))
        (norm): LayerNorm((384,), eps=1e-05, elementwise_affine=True)
      )
      (norm1): LayerNorm((384,), eps=1e-05, elementwise_affine=True)
      (attn): Relative_Attention(
        (qkv): Linear(in_features=384, out_features=1152, bias=False)
        (attn_drop): Dropout(p=0.0, inplace=False)
        (proj): Linear(in_features=384, out_features=384, bias=True)
        (proj_drop): Dropout(p=0.0, inplace=False)
        (softmax): Softmax(dim=-1)
      )
      (drop_path): DropPath()
      (norm2): LayerNorm((384,), eps=1e-05, elementwise_affine=True)
      (mlp): Mlp(
        (fc1): Linear(in_features=384, out_features=1536, bias=True)
        (act): GELU()
        (fc2): Linear(in_features=1536, out_features=384, bias=True)
        (drop): Dropout(p=0.0, inplace=False)
      )
    )
    (1): MHSABlock(
      (norm1): LayerNorm((384,), eps=1e-05, elementwise_affine=True)
      (attn): Relative_Attention(
        (qkv): Linear(in_features=384, out_features=1152, bias=False)
        (attn_drop): Dropout(p=0.0, inplace=False)
        (proj): Linear(in_features=384, out_features=384, bias=True)
        (proj_drop): Dropout(p=0.0, inplace=False)
        (softmax): Softmax(dim=-1)
      )
      (drop_path): DropPath()
      (norm2): LayerNorm((384,), eps=1e-05, elementwise_affine=True)
      (mlp): Mlp(
        (fc1): Linear(in_features=384, out_features=1536, bias=True)
        (act): GELU()
        (fc2): Linear(in_features=1536, out_features=384, bias=True)
        (drop): Dropout(p=0.0, inplace=False)
      )
    )
    (2): MHSABlock(
      (norm1): LayerNorm((384,), eps=1e-05, elementwise_affine=True)
      (attn): Relative_Attention(
        (qkv): Linear(in_features=384, out_features=1152, bias=False)
        (attn_drop): Dropout(p=0.0, inplace=False)
        (proj): Linear(in_features=384, out_features=384, bias=True)
        (proj_drop): Dropout(p=0.0, inplace=False)
        (softmax): Softmax(dim=-1)
      )
      (drop_path): DropPath()
      (norm2): LayerNorm((384,), eps=1e-05, elementwise_affine=True)
      (mlp): Mlp(
        (fc1): Linear(in_features=384, out_features=1536, bias=True)
        (act): GELU()
        (fc2): Linear(in_features=1536, out_features=384, bias=True)
        (drop): Dropout(p=0.0, inplace=False)
      )
    )
    (3): MHSABlock(
      (norm1): LayerNorm((384,), eps=1e-05, elementwise_affine=True)
      (attn): Relative_Attention(
        (qkv): Linear(in_features=384, out_features=1152, bias=False)
        (attn_drop): Dropout(p=0.0, inplace=False)
        (proj): Linear(in_features=384, out_features=384, bias=True)
        (proj_drop): Dropout(p=0.0, inplace=False)
        (softmax): Softmax(dim=-1)
      )
      (drop_path): DropPath()
      (norm2): LayerNorm((384,), eps=1e-05, elementwise_affine=True)
      (mlp): Mlp(
        (fc1): Linear(in_features=384, out_features=1536, bias=True)
        (act): GELU()
        (fc2): Linear(in_features=1536, out_features=384, bias=True)
        (drop): Dropout(p=0.0, inplace=False)
      )
    )
    (4): MHSABlock(
      (norm1): LayerNorm((384,), eps=1e-05, elementwise_affine=True)
      (attn): Relative_Attention(
        (qkv): Linear(in_features=384, out_features=1152, bias=False)
        (attn_drop): Dropout(p=0.0, inplace=False)
        (proj): Linear(in_features=384, out_features=384, bias=True)
        (proj_drop): Dropout(p=0.0, inplace=False)
        (softmax): Softmax(dim=-1)
      )
      (drop_path): DropPath()
      (norm2): LayerNorm((384,), eps=1e-05, elementwise_affine=True)
      (mlp): Mlp(
        (fc1): Linear(in_features=384, out_features=1536, bias=True)
        (act): GELU()
        (fc2): Linear(in_features=1536, out_features=384, bias=True)
        (drop): Dropout(p=0.0, inplace=False)
      )
    )
  )
  (stage_4): ModuleList(
    (0): MHSABlock(
      (patch_embed): OverlapPatchEmbed(
        (proj): Conv2d(384, 768, kernel_size=(3, 3), stride=(2, 2), padding=(1, 1))
        (norm): LayerNorm((768,), eps=1e-05, elementwise_affine=True)
      )
      (norm1): LayerNorm((768,), eps=1e-05, elementwise_affine=True)
      (attn): Relative_Attention(
        (qkv): Linear(in_features=768, out_features=2304, bias=False)
        (attn_drop): Dropout(p=0.0, inplace=False)
        (proj): Linear(in_features=768, out_features=768, bias=True)
        (proj_drop): Dropout(p=0.0, inplace=False)
        (softmax): Softmax(dim=-1)
      )
      (drop_path): DropPath()
      (norm2): LayerNorm((768,), eps=1e-05, elementwise_affine=True)
      (mlp): Mlp(
        (fc1): Linear(in_features=768, out_features=3072, bias=True)
        (act): GELU()
        (fc2): Linear(in_features=3072, out_features=768, bias=True)
        (drop): Dropout(p=0.0, inplace=False)
      )
    )
    (1): MHSABlock(
      (norm1): LayerNorm((768,), eps=1e-05, elementwise_affine=True)
      (attn): Relative_Attention(
        (qkv): Linear(in_features=768, out_features=2304, bias=False)
        (attn_drop): Dropout(p=0.0, inplace=False)
        (proj): Linear(in_features=768, out_features=768, bias=True)
        (proj_drop): Dropout(p=0.0, inplace=False)
        (softmax): Softmax(dim=-1)
      )
      (drop_path): DropPath()
      (norm2): LayerNorm((768,), eps=1e-05, elementwise_affine=True)
      (mlp): Mlp(
        (fc1): Linear(in_features=768, out_features=3072, bias=True)
        (act): GELU()
        (fc2): Linear(in_features=3072, out_features=768, bias=True)
        (drop): Dropout(p=0.0, inplace=False)
      )
    )
  )
  (norm_2): LayerNorm((768,), eps=1e-05, elementwise_affine=True)
  (cl_1_fc): Sequential(
    (0): Mlp(
      (fc1): Linear(in_features=384, out_features=384, bias=True)
      (act): GELU()
      (fc2): Linear(in_features=384, out_features=768, bias=True)
      (drop): Dropout(p=0.0, inplace=False)
    )
    (1): LayerNorm((768,), eps=1e-05, elementwise_affine=True)
  )
  (aggregate): Conv1d(2, 1, kernel_size=(1,), stride=(1,))
  (norm_1): LayerNorm((384,), eps=1e-05, elementwise_affine=True)
  (norm): LayerNorm((768,), eps=1e-05, elementwise_affine=True)
  (head): Linear(in_features=768, out_features=100, bias=True)
)
[2022-05-30 22:01:44 MetaFG_0] (main.py 110): INFO number of params: 28094055
[2022-05-30 22:01:44 MetaFG_0] (utils.py 43): INFO ==============> pretrain form ./pretrained_model/metafg_0_1k_224.pth....................
[2022-05-30 22:01:44 MetaFG_0] (utils.py 53): INFO ==============> drop head....................
[2022-05-30 22:01:44 MetaFG_0] (utils.py 63): INFO ==============> drop meta head....................
…
